MNIST_SV.pth (torch, 831259 bytes, 8 tensors)

conv1.weight f4 [16, 1, 3, 3]
0	0x3e843cac	0.2582754
1	0x3f1e51b5	0.61843425
2	0xbf5af247	-0.85525936
3	0xbebf08d8	-0.37311435
4	0x3f76911b	0.96315163
5	0x3f0b3766	0.54381406
6	0xbf2c17cf	-0.6722383
7	0xbe977013	-0.29577693
8	0x3e659d07	0.22423182
9	0xbebc1da8	-0.36741376
10	0xbe9cbffe	-0.30615228
11	0xbd675b5c	-0.05648361
12	0xbdec8d4e	-0.11550389
13	0xbebedb98	-0.37276912
14	0xbe90fd57	-0.28318283
15	0x3e321401	0.17390443
16	0xbd509a1e	-0.050928228
17	0xbeb0f0b0	-0.3455863
18	0xbd1677a4	-0.036735192
19	0xbed61c0c	-0.41818273
20	0x3ddd59d3	0.10808148
21	0x3e43ab0b	0.19108216
22	0xbce7c366	-0.028291415
23	0x3dde2521	0.108469255
24	0xbc552a65	-0.013010596
25	0xbdef0759	-0.11671323
26	0x3e66672d	0.22500296
27	0x3ea57551	0.32316068
28	0xbdbb862f	-0.09156453
29	0x3e6221ea	0.2208325
30	0xbd0266fd	-0.0318365
31	0x3eb7c4ae	0.35892242
32	0xbe2d876b	-0.16946189
33	0x3e52cf71	0.20586945
34	0xbeb9902c	-0.36242807
35	0xbe19d0e6	-0.15021095
36	0x3f10f1ac	0.5661876
37	0x3e8bd4b4	0.27310717
38	0xbe979f4e	-0.29613727
39	0xbe70fa9c	-0.235331
40	0xbebbb799	-0.3666351
41	0xbee144a0	-0.4399767
42	0xbe7b6a8a	-0.2455236
43	0xbea4c97e	-0.32184976
44	0x3bed7ae2	0.007247315
45	0x3f0cc90c	0.54994273
46	0x3a9d0b75	0.0011981564
47	0xbe4c13ab	-0.19929378
48	0x3e3ec5b9	0.18630113
49	0xbdc24869	-0.094864674
50	0xbd2c686a	-0.042091765
51	0xbea8f7e8	-0.33001637
52	0xbeb39fe1	-0.35082915
53	0x3e3214f8	0.17390811
54	0xbea6fecf	-0.3261628
55	0xbef83120	-0.4847498
56	0x3e3a79ce	0.18210527
57	0xbede69a7	-0.4343998
58	0x3e14656d	0.14491816
59	0x3f1973f0	0.5994253
60	0x3e87e4b1	0.26541665
61	0x3f2d8dc4	0.6779444
62	0xbe91ac52	-0.28451782
63	0xbda229af	-0.07918107
64	0xbed7bf1f	-0.42138
65	0xbf0d9f23	-0.5532095
66	0x3e806e43	0.25084123
67	0xbebfbd94	-0.37449324
68	0xbe5452d0	-0.20734715
69	0x3f202449	0.62555367
70	0x3f24b2ee	0.64335525
71	0x3ded271d	0.11579726
72	0x3df1ad27	0.11800604
73	0x3f16b8cf	0.58875746
74	0x3ee132e3	0.43984136
75	0xbd134f31	-0.035964195
76	0x3d612108	0.05496314
77	0xbe1242eb	-0.1428334
78	0xbf16c879	-0.58899647
79	0xbf1612d3	-0.58622473
80	0xbe7b6573	-0.24550419
81	0x3e899fb2	0.2687965
82	0x3ee9d1e5	0.4566795
83	0x3eb6bf70	0.3569293
84	0xbeb9e96b	-0.36310896
85	0x3d8a60e9	0.067567654
86	0xbdea5e5f	-0.11443781
87	0xbf0b69e1	-0.54458433
88	0x3ca39316	0.019967597
89	0x3e2b44e1	0.16725494
90	0x3eedc535	0.4643952
91	0x3dd9d590	0.10636437
92	0x3da84193	0.08215632
93	0x3e138faa	0.14410272
94	0xbdea0ed2	-0.11428608
95	0xbea021d6	-0.31275815
96	0xbe3b0140	-0.18262196
97	0xbee9ddfd	-0.45677176
98	0x3e9daea1	0.30797294
99	0x3e6b9cb6	0.23008999
100	0xbc2ea3c3	-0.010659161
101	0x3e8dde2e	0.27708572
102	0x3ea563fb	0.32302842
103	0x3e3ed26c	0.18634957
104	0x3ea06b34	0.3133179
105	0xbebd2189	-0.36939648
106	0xbec997ed	-0.39373723
107	0xbead8cf7	-0.3389661
108	0x3ee85663	0.45378408
109	0x3e232088	0.15930378
110	0xbe9b52f1	-0.30336717
111	0x3f29a8af	0.66273016
112	0xbecff6bd	-0.40617934
113	0xbf0d5dae	-0.5522107
114	0x3f0b4a24	0.54410005
115	0xbd8d845d	-0.06910012
116	0xbe922c87	-0.28549597
117	0xbc32ad01	-0.010905505
118	0x3dfea93d	0.124346234
119	0x3d90dd85	0.070735015
120	0xbf131fcd	-0.574704
121	0xbee2e0b1	-0.4431205
122	0x3eac7105	0.33679977
123	0xbea5385d	-0.32269564
124	0x3e982ffd	0.29724112
125	0x3f2585fb	0.6465756
126	0x3ea1a4fb	0.31571183
127	0x3e843598	0.2582214
128	0xbef9d83f	-0.48797795
129	0xbf0b44b3	-0.544017
130	0x3dcd591e	0.100267634
131	0x3f0547b4	0.52062535
132	0x3e85436c	0.26028
133	0x3e3140aa	0.17309824
134	0x3de11132	0.10989608
135	0xbe7b73b4	-0.24555856
136	0xbe44b495	-0.19209512
137	0x3ede274a	0.4338935
138	0xbead45a9	-0.3384221
139	0x3d7e3de4	0.062070742
140	0x3eeb7043	0.45984086
141	0xbec70d28	-0.38877225
142	0xbdbe3db8	-0.09289116
143	0x3ee2e485	0.44314972

conv1.bias f4 [16]
0	0xbee8661e	-0.4539041
1	0xbf45bcdd	-0.7724131
2	0xbe0a0f42	-0.13482383
3	0xbeaa1344	-0.33217824
4	0xbf20d8a7	-0.62830585
5	0xbe8c605a	-0.2741726
6	0xbea149bd	-0.3150157
7	0xbeb24960	-0.34821606
8	0xbf0edee2	-0.5580884
9	0xbe3fd77b	-0.18734543
10	0xbdec20dd	-0.11529706
11	0xbea68476	-0.32522935
12	0xbf22acb2	-0.6354476
13	0xbedcff69	-0.43163612
14	0xbe27a82a	-0.16372743
15	0xbf46d499	-0.7766815

conv2.weight f4 [32, 16, 3, 3]
0	0x3b185b8f	0.0023247933
1	0xbd98b56a	-0.07456477
2	0xbdf8dd41	-0.12151576
3	0x3d0c8c66	0.034313582
4	0x3d6c29e2	0.05765713
5	0x3e05f69d	0.13082357
6	0xbdb60ff0	-0.088897586
7	0x3da46410	0.08026898
8	0x3e93d3a4	0.28872406
9	0x3c0efabe	0.008726774
10	0x3b242bed	0.0025050596
11	0x3cb7fbb8	0.022458896
12	0xbe64dd27	-0.22349988
13	0xbe1bc682	-0.15212443
14	0xbe4350c6	-0.19073781
15	0xbe48fef8	-0.19628513
16	0xbdf14070	-0.117798686
17	0xbe398548	-0.18117249
18	0x3d9626dd	0.07331631
19	0xbcbe334a	-0.023217816
20	0x3d910464	0.070809156
21	0xbc886042	-0.016647462
22	0x3df241f4	0.11828986
23	0x3d847495	0.06467549
24	0x3c04d725	0.008107935
25	0x3d8226f6	0.063550875
26	0x3c384767	0.011247492
27	0xbd7fe06a	-0.062469877
28	0xbcdfa0cd	-0.027298355
29	0xbdeaf363	-0.114722036
30	0x3d049625	0.03236975
31	0x3d028c2d	0.031871963
32	0xbe0f9576	-0.14021859
33	0x3d31e182	0.04342795
34	0x3dae6b49	0.08516557
35	0xbd9eab7d	-0.077475525
36	0xbde19986	-0.110156104
37	0xbd203da1	-0.039121274
38	0xbd3cc217	-0.046083536
39	0xbe0afa39	-0.13572015
40	0xbe04f4e8	-0.1298405
41	0xbdd3afed	-0.103362896
42	0xbe40b3f7	-0.18818651
43	0xbe1f925c	-0.15583175
44	0xbe1cfad4	-0.15330058
45	0x3cc4e9d1	0.024037274
46	0xbc869a5b	-0.016431024
47	0xbd68e437	-0.056858268
48	0xbd93d92e	-0.07219158
49	0x3b966939	0.0045901802
50	0x3ccd0c1a	0.025030185
51	0x3d68ecf7	0.056866612
52	0xbdacf373	-0.08444872
53	0x3d4299a6	0.04750981
54	0x3e655e67	0.22399293
55	0xbdec5b3e	-0.115408406
56	0x3e81ba5c	0.25337493
57	0x3dc4ed68	0.09615594
58	0xbb4a4092	-0.003086124
59	0x3e299a08	0.16562665
60	0xbd60d7f5	-0.054893453
61	0xbdf07043	-0.11740162
62	0xbe06eb95	-0.13175805
63	0x3df9cc3e	0.12197159
64	0x3e852484	0.26004422
65	0x3e80baf5	0.25142637
66	0xbd2a283f	-0.041542288
67	0x3d8741c9	0.066043444
68	0x3d6844ee	0.05670636
69	0xbe4dc31c	-0.2009396
70	0xbd9301d7	-0.07178085
71	0xbe340f76	-0.17584023
72	0xbdd21206	-0.10257344
73	0xbb81fb74	-0.003966743
74	0xbd96860c	-0.07349786
75	0x3ca20252	0.019776497
76	0x3dd4f620	0.10398507
77	0xbd5daf80	-0.054122448
78	0xbe42b343	-0.19013695
79	0xbe142c1e	-0.14469954
80	0x3e18ef10	0.14934945
81	0xbd898047	-0.0671392
82	0xbe574c66	-0.21025237
83	0xbd96e552	-0.07367958
84	0x3c31137d	0.010807869
85	0xbc7bf827	-0.015378988
86	0x3d7c4e1c	0.06159793
87	0xbccef3fb	-0.025262823
88	0xbd346fa8	-0.044051796
89	0x3e01a6a9	0.12661232
90	0xbd8bd71c	-0.06828138
91	0x3d27c134	0.040955737
92	0xbd43a16d	-0.04776137
93	0x3cdc7447	0.026910914
94	0xbdb34ef3	-0.08755293
95	0xbd4034f4	-0.0469255
96	0x3d3a8bde	0.045543544
97	0xbd8b95f7	-0.06815713
98	0x3de06c1d	0.10958121
99	0xbe06b224	-0.13153893
100	0xbdc7765c	-0.09739372
101	0xbe0ca0a4	-0.13733155
102	0x3b41fb3c	0.002959921
103	0x3dee8e52	0.11648239
104	0xbc1665c9	-0.009179541
105	0xbd7cf0ba	-0.061753012
106	0x3d059935	0.032616813
107	0x3e0b55a1	0.13606884
108	0xbd82f023	-0.06393459
109	0x3e46cad7	0.19413315
110	0xbd911db4	-0.070857435
111	0x3db171f0	0.0866431
112	0xbe4dd23e	-0.20099732
113	0x3e132109	0.1436807
114	0x3ecc04d5	0.39847437
115	0x3e78497a	0.24246779
116	0x3c470ddf	0.012149303
117	0xbd17ced6	-0.03706249
118	0xbe608d10	-0.21928811
119	0x3e8b9f55	0.27269998
120	0xbd346234	-0.044038966
121	0xbde04745	-0.109510936
122	0xbd65e3d4	-0.056125477
123	0x3d7e24fd	0.062046994
124	0xbdf35b10	-0.11882603
125	0xbdb0f303	-0.08640101
126	0x3d352816	0.044227682
127	0xbc91909a	-0.017769147
128	0xbcec56a8	-0.028849915
129	0xbd5b9fd9	-0.05361924
130	0x3dc5a0a4	0.096497804
131	0x3bc12c60	0.0058951825
132	0x3d17e950	0.03708774
133	0xbdf1b4bf	-0.11802053
134	0x3c890100	0.01672411
135	0x3d2194a8	0.03944841
136	0xbd629ee2	-0.055327304
137	0x3e0bdd7c	0.13658708
138	0x3c9ed5bb	0.019389024
139	0xbda8cbe9	-0.08242018
140	0xbd22f77c	-0.0397868
141	0x3e0bbd19	0.13646354
142	0x3cc53f20	0.024077952
143	0x3bcdd2be	0.006281226
144	0xbde46c41	-0.1115346
145	0xbd550dc5	-0.052015085
146	0xbdd65bf4	-0.104667574
147	0xbe4c6718	-0.19961202
148	0xbe0eb52f	-0.13936304
149	0xbdf1aa36	-0.11800043
150	0xbd598fef	-0.05311578
151	0x3d986f56	0.07443111
152	0x3d67a9c0	0.05655837
153	0xbdfa6e65	-0.12228087
154	0xbcacd48c	-0.021097444
155	0x3d59d49b	0.053181272
156	0xbdda01f2	-0.10644902
157	0xbde58579	-0.112070985
158	0xbd1fc4ad	-0.039005924
159	0xbe3c2bf2	-0.18376139
160	0xbe731982	-0.23740199
161	0xbde66f31	-0.11251677
162	0x3dae6796	0.08515851
163	0xbdb7fad5	-0.08983389
164	0xbd79ad57	-0.060956325
165	0xbc226c72	-0.009913551
166	0xb8a52d2f	-7.876229e-05
167	0x3cfd11c5	0.030892262
168	0x3cd6db57	0.026227636
169	0x3cf2f54d	0.029657984
170	0x3da80e9f	0.08205914
171	0xbd44dc64	-0.048061743
172	0x3dc0292b	0.09382852
173	0x3da834a8	0.082131684
174	0xbcc480d6	-0.023987215
175	0xbc9b990c	-0.018993877
176	0xbc80d91b	-0.015728524
177	0x3cc569de	0.024098333
178	0xbd104bf6	-0.035228692
179	0xbd86982b	-0.065719925
180	0xbdd263f1	-0.102729686
181	0xbc7381a4	-0.014862452
182	0x3e8dcf97	0.2769744
183	0xbe42afc8	-0.19012368
184	0xbe756c57	-0.2396711
185	0xbe04b257	-0.12958656
186	0xbda2d444	-0.07950643
187	0x3d8f8dc0	0.070094585
188	0xbe89cc8d	-0.26913872
189	0x3d84411d	0.06457732
190	0x3dda7178	0.10666174
191	0x3e041ea1	0.12902309
192	0xbd0c7f27	-0.03430095
193	0xbd11e84a	-0.03562192
194	0xbd974822	-0.07386805
195	0x3c255268	0.010090448
196	0x3c9660a6	0.018356632
197	0x3d25150d	0.04030328
198	0x3dca9b2f	0.0989288
199	0xbb8660b6	-0.0041008843
200	0x3cc7ca35	0.024388412
201	0x3d9803bb	0.074225865
202	0x3cb5fbf4	0.022214867
203	0x3e01d645	0.12679394
204	0x3c66341e	0.014050512
205	0xbddbbf5d	-0.10729859
206	0x3d7e6ec7	0.062117364
207	0x3bdbab58	0.0067037754
208	0xbdde2ecc	-0.108487695
209	0x3c5fe003	0.013664248
210	0x3e917b0c	0.2841419
211	0x3e99ea90	0.3006177
212	0x3eb308cf	0.34967658
213	0x3db52b08	0.08846098
214	0xbd441a51	-0.04787666
215	0xbd0ad089	-0.03389028
216	0xbdab5ced	-0.083673336
217	0x3d52ae49	0.051435743
218	0x3de497a8	0.11161739
219	0x3c00f28d	0.007870329
220	0xbd11fd92	-0.035642214
221	0xbdda8c0e	-0.106712446
222	0x3e13cdc7	0.14433967
223	0x3cd6da34	0.026227094
224	0xbdb429f6	-0.08797066
225	0xbe10cbcc	-0.14140242
226	0xbdd1218a	-0.10211475
227	0xbe34ce16	-0.1765674
228	0xbd4bc63c	-0.049749598
229	0xbdf048a9	-0.11732609
230	0xbd6519da	-0.055932857
231	0x3e06eb51	0.13175704
232	0x3e49dccf	0.19713138
233	0x3c6523fd	0.013985631
234	0x3cc712c1	0.024300935
235	0x3cb03a73	0.021512246
236	0x3de044fc	0.10950658
237	0xbd54bc50	-0.0519374
238	0x3cc22a51	0.023701819
239	0x3d51e6f1	0.051245634
240	0x3da65501	0.08121682
241	0x3d8f5fee	0.07000719
242	0xbc1addd8	-0.009452306
243	0xbc86b739	-0.01644479
244	0xbd9bb60f	-0.07603084
245	0xbc539ce2	-0.012915822
246	0xbb8764f0	-0.0041319057
247	0xbcf3bdf0	-0.029753655
248	0xbe0811d6	-0.13288054
249	0x3e1533a4	0.1457048
250	0xbdc9207a	-0.098206475
251	0xbc52f035	-0.012874653
252	0x3dd1ddba	0.10247369
253	0x3cc68a00	0.024235725
254	0x3db1a5d4	0.08674207
255	0xbe133ede	-0.1437945

conv2.bias f4 [32]
0	0xbddaad35	-0.10677568
1	0xbd4db0f8	-0.0502176
2	0xbd891009	-0.066925116
3	0x3be25600	0.0069072247
4	0xbe1f466e	-0.1555421
5	0xbd5b3622	-0.053518422
6	0xbd779541	-0.060445074
7	0xbdf9586f	-0.121750705
8	0xbe01184a	-0.12606922
9	0xbe53ece3	-0.20695834
10	0xbd9289bb	-0.07155176
11	0x3d08f587	0.033437278
12	0xbe50f6f0	-0.20406699
13	0x3d50496e	0.050851278
14	0x3cb4c24b	0.022065302
15	0xbe273838	-0.1633004
16	0xbd6529cb	-0.05594806
17	0xbe1b417c	-0.15161699
18	0xbdfbe43f	-0.12299394
19	0xbe2be694	-0.16787177
20	0xbdaf4253	-0.08557572
21	0xbcc291bd	-0.023751134
22	0xbda892af	-0.08231103
23	0x3a9220de	0.0011148711
24	0x3c8d5431	0.01725206
25	0x3bd77a59	0.0065758643
26	0xbdb35f33	-0.08758392
27	0xbe4996d1	-0.19686438
28	0x3c8d3afa	0.017240036
29	0xbe1d5f75	-0.15368445
30	0xbd8d8f73	-0.069121264
31	0xbe55fbe8	-0.20896876

fc1.weight f4 [128, 1568]
0	0x3b124eab	0.0022324722
1	0x3ba00b9f	0.004884198
2	0x3c800aba	0.015630115
3	0x3c3ea149	0.011635133
4	0x3b48e4a4	0.0030653859
5	0x3c86736b	0.016412457
6	0x3c0cf43b	0.008603151
7	0xbb6d3021	-0.0036192017
8	0x3c48f1e5	0.012264703
9	0x3cdd6fc8	0.02703084
10	0x3d3192d4	0.043352917
11	0x3c923a0d	0.017849946
12	0x3d2f20e5	0.04275598
13	0xbc933c7f	-0.017973183
14	0xbcab694d	-0.020924235
15	0x3c6292ab	0.013828914
16	0x3bd2b238	0.0064299367
17	0x3d1d4ec1	0.038405184
18	0x3d04fe8a	0.03246931
19	0x3c64a174	0.013954509
20	0xbcaacd95	-0.020849982
21	0xbbcb8c38	-0.0062117837
22	0xbcaae8e7	-0.02086301
23	0xbd494a2a	-0.049142994
24	0xbdcd9063	-0.10037305
25	0xbdc1b0d9	-0.09457559
26	0xbd4ac52d	-0.049504448
27	0xbc55c108	-0.0130465105
28	0x3a64d0e9	0.000872864
29	0x3af84339	0.0018940932
30	0xbdb2ba64	-0.087269574
31	0xbdcbd841	-0.099533565
32	0xbd5ce8e2	-0.05393303
33	0xbc567e22	-0.013091596
34	0x3adf7a60	0.001705002
35	0x3cd51eae	0.026015606
36	0xbd0c79f7	-0.034296002
37	0x3bdee48f	0.0068021487
38	0x3cac2a08	0.021016136
39	0x3b2e2f46	0.002657847
40	0xba9af6a8	-0.0011822777
41	0x3cbf68e3	0.023365444
42	0xbc6bad2b	-0.014384548
43	0xba63ac79	-0.0008685063
44	0xbc659d1d	-0.0140145095
45	0xbc65ce3a	-0.014026219
46	0x3c1c3589	0.009534248
47	0x3ca96553	0.020678198
48	0x3b7b192d	0.0038314566
49	0xbccf9a92	-0.02534226
50	0x3ca785dd	0.020449573
51	0x3b08ddaa	0.0020884075
52	0xbd0c9383	-0.034320366
53	0xbd234301	-0.03985882
54	0x3a4cecbc	0.00078172586
55	0xbc42c34b	-0.011887382
56	0xbc6e121e	-0.014530687
57	0xbbe87192	-0.0070936168
58	0x3d136073	0.035980653
59	0x3affdb7d	0.0019520369
60	0x3d3d6eb8	0.046248168
61	0x3d6ae96c	0.057351515
62	0x3cc846a2	0.024447743
63	0xbb22e601	-0.0024856331
64	0x3c26c3c7	0.010178513
65	0xbcad5398	-0.021158025
66	0xbdbddb75	-0.09270374
67	0xbd22dc39	-0.039760802
68	0x3c180d88	0.00928057
69	0x3cb8fd54	0.022581734
70	0xbbbf016f	-0.0058290283
71	0x3c94ff57	0.018188162
72	0xbd48b716	-0.04900273
73	0xbe100d09	-0.14067473
74	0xbe30051c	-0.17189449
75	0xbd75236c	-0.059848234
76	0xbc89beee	-0.016814675
77	0xbbcd995f	-0.006274387
78	0x3b36f937	0.002791954
79	0x3cbec5e2	0.023287717
80	0xbb958877	-0.004563387
81	0xbdb68372	-0.0891179
82	0xbd36ec3f	-0.044658896
83	0xbc3ec1a1	-0.011642844
84	0xbc595d2f	-0.013266846
85	0xbc6dedb6	-0.014522007
86	0x3ca0476e	0.01956531
87	0x3d928a83	0.07155325
88	0xbdc0bc1e	-0.094108805
89	0xbbe9c186	-0.0071336655
90	0xbb561508	-0.0032666344
91	0x3ba181cd	0.0049288035
92	0xbab6a560	-0.0013934784
93	0x3c06345f	0.008191197
94	0xbc9cc716	-0.0191379
95	0xbc30b203	-0.010784629
96	0xb9f011e5	-0.000457897
97	0xbcc0b1c2	-0.023522262
98	0x3c88679f	0.016650973
99	0xbc725d55	-0.01479276
100	0xbd944a9a	-0.072407916
101	0xbce6dbe3	-0.028181022
102	0xbca0e038	-0.019638166
103	0xbc659b27	-0.014014042
104	0x3cd8fa89	0.026486652
105	0x3c8b366c	0.016993724
106	0xbd049f57	-0.03237852
107	0xbca80b94	-0.020513333
108	0xbc526461	-0.012841315
109	0x3bb36701	0.0054749255
110	0x3cee382a	0.029079515
111	0xbbc2bdab	-0.0059430203
112	0x3aa940a2	0.0012912939
113	0x3c38f777	0.011289469
114	0xbd4ddbcd	-0.050258446
115	0xbd6a9024	-0.05726637
116	0xbe293e2c	-0.16527623
117	0xbd830cea	-0.063989475
118	0x3c6ade71	0.014335261
119	0x3c8488b8	0.016178474
120	0x3cb3f0cc	0.021965407
121	0x3c50e136	0.012749007
122	0xbdfe3466	-0.12412338
123	0xbd972139	-0.073793836
124	0x3aa3c54e	0.0012494714
125	0x3c649c00	0.013953209
126	0xbc1dcd43	-0.009631458
127	0x3cc2bf31	0.023772808
128	0x3cb4bd7d	0.022063011
129	0x3c549a72	0.012976276
130	0x3d069785	0.032859344
131	0x3c047d43	0.008086505
132	0xbbc1db28	-0.005916018
133	0xbc1d88c4	-0.009615127
134	0xbbf14a6b	-0.0073636076
135	0xbd4343ae	-0.047671966
136	0xbd347d7c	-0.044064984
137	0x3c9b2c58	0.018942043
138	0x3b83fc35	0.004027868
139	0x3b539c73	0.0032289296
140	0xbcab91df	-0.02094358
141	0x3cc4b6a2	0.024012867
142	0x3c81459c	0.015780263
143	0xbbb3fac8	-0.005492542
144	0x3b5451f2	0.0032397476
145	0x3c38b34d	0.011273217
146	0x3c0c4dec	0.0085635
147	0xbc624d3f	-0.013812362
148	0x3c08b9b3	0.008345055
149	0x3b7cb59c	0.0038560396
150	0xbce4aedc	-0.02791541
151	0xbd1aa385	-0.0377536
152	0xba6f4b75	-0.00091283704
153	0xbcabcb15	-0.02097086
154	0x3cc35fda	0.023849417
155	0x3cdc5cfc	0.026899807
156	0xbc8743cf	-0.016511826
157	0xbd2bfd3e	-0.041989557
158	0xbc3e347d	-0.011609194
159	0x3d1d196d	0.038354326
160	0x3c21f1f3	0.009884345
161	0x3cd4e0f3	0.02598617
162	0xbc97d242	-0.018532876
163	0x3c52345f	0.012829869
164	0x3bb21ea6	0.0054357825
165	0x3d805b36	0.06267397
166	0x3da6da8c	0.08147153
167	0x39dbcfea	0.00041925843
168	0x3cf7d556	0.030253094
169	0x3bf96443	0.007610829
170	0xbca2e8fe	-0.01988649
171	0xbd7a8d60	-0.061169982
172	0xbd451fe0	-0.0481261
173	0x3bfabfac	0.0076522436
174	0x3cc5a6d0	0.024127394
175	0xbb06261b	-0.002046949
176	0x3d4e69ef	0.050393995
177	0xbd4ca2ed	-0.049960066
178	0xbe0c6734	-0.13711244
179	0xbdcd8c2e	-0.10036503
180	0xbcf3de84	-0.02976919
181	0xbcda6672	-0.026660178
182	0x3c5029b0	0.012705252
183	0x3b84b5a5	0.004049974
184	0x3d75a152	0.0599683
185	0xbd9eafcb	-0.077483736
186	0xbda8c789	-0.08241183
187	0xbc6eef8b	-0.014583479
188	0x3c7f3f58	0.015579067
189	0x3bad9078	0.005296763
190	0xbc857023	-0.016288823
191	0x3c155d37	0.009116462
192	0xbbc59c92	-0.0060306275
193	0x3bed70f3	0.0072461306
194	0xbbc54d07	-0.0060211453
195	0x3bac3060	0.00525479
196	0x3ca65d4d	0.020308161
197	0x3cbcee7c	0.023062937
198	0xbb0bde1f	-0.0021342111
199	0xbb7d6b03	-0.003866852
200	0x3c530ef6	0.012881985
201	0xbcc31c6f	-0.02381727
202	0xbc1b7a8b	-0.009489666
203	0x3c523298	0.012829445
204	0xbc9e45ac	-0.019320332
205	0xbd19073e	-0.037360422
206	0x3d6d8f67	0.057998087
207	0xbc93ee4e	-0.018057968
208	0x39677714	0.00022074237
209	0xbcd28f55	-0.025703112
210	0xbc087f58	-0.008331142
211	0xbbe3af5c	-0.0069483947
212	0xbcdfcdfa	-0.027319897
213	0x3d5c351a	0.05376158
214	0x3cda5f89	0.026656883
215	0xbcf0bda9	-0.029387312
216	0x3bdfa240	0.0068247616
217	0x3a961b8a	0.0011452299
218	0x3cc75fff	0.024337767
219	0x3d8e80f1	0.06958187
220	0xbceda1d2	-0.029007826
221	0xbda9c23a	-0.08288999
222	0xbd279440	-0.040912867
223	0xbce72ca3	-0.028219527
224	0xbca906f8	-0.020633206
225	0x3ccc428c	0.024934076
226	0xbb3912d8	-0.0028239992
227	0x3cb8e54f	0.02257028
228	0x3c8ed926	0.017437529
229	0xbbeaa0a1	-0.0071602617
230	0xbbb22ece	-0.0054377085
231	0xbc112961	-0.008859963
232	0x3cba234c	0.022721909
233	0x3c947670	0.018122882
234	0xbd22745d	-0.039661754
235	0x3d444aef	0.047923025
236	0x3d00c2ff	0.031435963
237	0xbad3c9d7	-0.0016158175
238	0x3c213d04	0.009841207
239	0xbbe113e9	-0.0068688286
240	0x3d0ae0e4	0.03390588
241	0x3abcd2c4	0.0014406075
242	0xbc2bff36	-0.010497859
243	0xbca17a8c	-0.019711755
244	0x3c654e3b	0.013995702
245	0x3cb94ea1	0.022620501
246	0x3cefa01e	0.029251155
247	0x3ce93b01	0.028470518
248	0x3d371acb	0.044703286
249	0x3beae621	0.007168547
250	0x3d34b1fb	0.044115048
251	0x3d1a0606	0.0376034
252	0xbc99f2ef	-0.018792598
253	0xbc6b00f3	-0.014343488
254	0xbd324cf7	-0.04353043
255	0xbcf73275	-0.030175427

fc1.bias f4 [128]
0	0x3cbdf5be	0.023188468
1	0xbd171c1e	-0.03689205
2	0xbbf462fd	-0.0074580894
3	0xbdc6435e	-0.09680818
4	0xbc2cab5f	-0.010538905
5	0xbd846758	-0.06465024
6	0x3dbb7a1e	0.091541514
7	0x3bc6e166	0.00606935
8	0xbd0592fd	-0.032610882
9	0x3ada7ec1	0.0016669856
10	0xbc8ff60a	-0.017573375
11	0x3ce40c5a	0.027837921
12	0x3c1e16c1	0.00964898
13	0x3c9d1aa5	0.019177744
14	0xbd317245	-0.043321867
15	0x3b9095ac	0.0044123735
16	0x3b0a272f	0.0021080484
17	0xbd730a82	-0.059336193
18	0x3d8b7b30	0.068106055
19	0xbd1454df	-0.036213752
20	0x3d09d4f9	0.033650372
21	0xbab211c0	-0.0013585612
22	0xbc3b70d9	-0.011440479
23	0x3d21336d	0.039355684
24	0xbcc873b0	-0.024469227
25	0x3c6d3243	0.014477315
26	0x3c2593fd	0.010106084
27	0x3cfd4747	0.030917777
28	0x3da8fd8c	0.08251485
29	0xbae5a5e1	-0.0017520749
30	0xb8af7ffc	-8.368489e-05
31	0xbd416b1d	-0.04722129
32	0xbd48a2df	-0.04898345
33	0x3d93e816	0.07222001
34	0xbc2b2198	-0.010445021
35	0x3d87744b	0.06613978
36	0xbb1e1738	-0.0024122726
37	0x3ddc6b86	0.10762696
38	0x3c84e87e	0.016224142
39	0x3d6542c0	0.05597186
40	0x3d823a19	0.063587375
41	0xbbdf9b14	-0.0068239067
42	0xbd2cdd4f	-0.042203244
43	0x3c14cd2f	0.009082123
44	0xbcffed46	-0.03124107
45	0xbd285d1b	-0.041104417
46	0xbaa17bb1	-0.0012320188
47	0xbd6eaea2	-0.05827201
48	0x3d24b2d0	0.04020959
49	0xbbc2b92a	-0.0059424834
50	0x3cd78c74	0.02631209
51	0x3c2afdc7	0.010436482
52	0x3c7acf4c	0.0153082125
53	0x3bfa918f	0.0076467465
54	0x3cf65165	0.030068109
55	0xbde04f3c	-0.10952613
56	0xbc92f8f9	-0.017940985
57	0xbd105a1b	-0.03524218
58	0x3ccff2e4	0.025384374
59	0xbd8b6b6b	-0.06807598
60	0x3ca9181b	0.020641377
61	0xbcd6bde7	-0.0262136
62	0xbcd6c693	-0.026217734
63	0x3ba20c49	0.004945312
64	0xbca5a5d1	-0.020220669
65	0x3cf6ea94	0.030141152
66	0xbcd94b3f	-0.026525138
67	0xbc2fd2db	-0.010731424
68	0xbb0ee9d7	-0.002180686
69	0x3d9de952	0.07710518
70	0xbdce9e71	-0.10088814
71	0x3c750694	0.014955182
72	0xbcbb59c3	-0.02286995
73	0x3ccecc22	0.025243822
74	0xbcda537a	-0.026651133
75	0x3d86c226	0.065799996
76	0xbdede774	-0.11616412
77	0x3d12f275	0.035875756
78	0x3c118d92	0.008883851
79	0xbcec8c79	-0.028875576
80	0x3d970a92	0.07375063
81	0xbd0d21c8	-0.034456044
82	0xbc0753e1	-0.008259744
83	0xbca7cf23	-0.020484513
84	0xbb9f6398	-0.0048641674
85	0x3b45a2f4	0.0030156942
86	0xbc2cad90	-0.010539427
87	0xbb2fa0e6	-0.0026798784
88	0xbc501ef2	-0.01270269
89	0x3c97555b	0.018473318
90	0xbcb12974	-0.021626212
91	0xbc466b5f	-0.01211056
92	0xbcf10500	-0.02942133
93	0xbcbd27bf	-0.023090241
94	0xbb78a760	-0.003794156
95	0xbd747ff7	-0.05969235
96	0x3c674c88	0.014117368
97	0xbb72ac54	-0.0037028985
98	0xbd0f2c83	-0.03495456
99	0xbc0c0172	-0.008545266
100	0xbdac851a	-0.084238246
101	0xbc7c1cb5	-0.015387704
102	0xbcbdb748	-0.023158684
103	0x3d6925ad	0.056920696
104	0x3ae5f823	0.0017545264
105	0xbb6ae882	-0.0035844152
106	0x3cb9c1be	0.022675391
107	0x3c8be831	0.01707849
108	0xbce5b659	-0.028041052
109	0xbd3fe5f8	-0.046850175
110	0xbd101c48	-0.03518322
111	0x3ddadc88	0.10686594
112	0x3d38ac9c	0.045086488
113	0x3d5e922a	0.05433861
114	0x3a94f00c	0.0011363043
115	0x3d1b1179	0.03785846
116	0xbdad5238	-0.084629476
117	0x3ca613da	0.020273138
118	0x3b8dffe3	0.0043334826
119	0xbc2ccf70	-0.010547504
120	0xba8964bf	-0.0010482295
121	0xbcfb5c3a	-0.030683625
122	0xbcc624ca	-0.024187464
123	0xbccecb85	-0.02524353
124	0xbc3010b3	-0.010746169
125	0x3a9e1365	0.0012060223
126	0x3db42fdb	0.0879819
127	0x3d325fe7	0.04354849

fc2.weight f4 [10, 128]
0	0x3ec673f1	0.3876033
1	0x3dc88165	0.09790305
2	0xbe1c9e45	-0.1529475
3	0x3da8de50	0.08245528
4	0x3da1f4e1	0.07908035
5	0xbe2473e1	-0.1605983
6	0xbdfdeba1	-0.12398458
7	0x3e92f034	0.28698885
8	0x3d857971	0.06517304
9	0xbe5c18f7	-0.21493898
10	0xbdc23bf5	-0.09484092
11	0xbdf19fa3	-0.117980264
12	0x3d77b77c	0.06047772
13	0xbd903488	-0.070412695
14	0x3e79d599	0.24397887
15	0xbdc460ff	-0.09588813
16	0x3e33b8c8	0.17550957
17	0xbd857ba1	-0.06517721
18	0x3e9468ca	0.28986198
19	0x3dcfbfef	0.1014403
20	0x3e0cae31	0.13738324
21	0x3e681ab3	0.22666435
22	0xbe9df4c7	-0.30850813
23	0x3e6355d3	0.22200708
24	0xbce16946	-0.027516019
25	0x3d19c4fd	0.03754138
26	0xbd1539df	-0.036432143
27	0x3e4713df	0.19441174
28	0x3d2312a1	0.039812688
29	0xbc94d50f	-0.018168
30	0x3eb728a9	0.3577321
31	0x3edfcc8e	0.4371075
32	0xbe3b0f60	-0.18267584
33	0xbe446266	-0.19178161
34	0xbe8190a4	-0.25305665
35	0xbe3e9fcd	-0.18615647
36	0xbdf8a8d7	-0.12141579
37	0xbeae3699	-0.3402603
38	0x3d8ec830	0.069717765
39	0xbd620dcc	-0.05518894
40	0xbc852994	-0.016255178
41	0x3d2df19c	0.042466745
42	0xbe6acbd1	-0.22929312
43	0xbe0ae997	-0.1356567
44	0xbd306253	-0.04306252
45	0xbe4e6294	-0.20154792
46	0xbd5f5142	-0.054520853
47	0x3e55079b	0.20803683
48	0xbc62b9ea	-0.013838271
49	0xbc61ecd9	-0.013789379
50	0xbe0a9602	-0.13533786
51	0x3c4d3217	0.012524149
52	0x3ce76fa0	0.02825147
53	0x3d9f0c1c	0.077659816
54	0x3c873c63	0.016508287
55	0x3ea57f2b	0.32323584
56	0x3e1bd180	0.15216637
57	0xbeb4da82	-0.35322958
58	0xbd99a7ea	-0.0750273
59	0xbe8ad832	-0.2711807
60	0xbd9687ac	-0.07350096
61	0x3e29551e	0.16536376
62	0x3d91f387	0.07126527
63	0x3c1750dc	0.009235587
64	0xbc9035ae	-0.017603721
65	0x3e25b0f1	0.16180779
66	0x3d8ed22a	0.06973679
67	0xbea35d45	-0.31907097
68	0x3e27a665	0.16372068
69	0xbe9fe0c4	-0.3122617
70	0x3e659107	0.22418605
71	0x3bbd0cc5	0.0057693445
72	0x3ec2bb29	0.38033417
73	0x3dd32b30	0.10310972
74	0xbe957bcf	-0.2919602
75	0x3ee10207	0.4394686
76	0xbdcce784	-0.100050956
77	0x3cea7803	0.02862168
78	0xbc96b08e	-0.018394735
79	0xbdb0735f	-0.08615755
80	0x3df26af3	0.11836805
81	0xbd298883	-0.041389953
82	0x3db1a6f6	0.086744234
83	0x3e80e72c	0.2517637
84	0x3dc128b4	0.09431592
85	0xbe298c83	-0.16557507
86	0x3d8a234c	0.067450136
87	0x3e18c0f6	0.14917359
88	0x3e6d6fd6	0.23187193
89	0xbda31b28	-0.07964164
90	0x3d8b1065	0.067902364
91	0xbe198f27	-0.14996015
92	0xbdc01e63	-0.09380796
93	0x3db150dd	0.086580016
94	0xbde4f386	-0.11179261
95	0xbe0c5827	-0.13705502
96	0x3e4cfe20	0.20018816
97	0x3df73828	0.12071258
98	0x3c8a6b5b	0.016896894
99	0x3b220be9	0.0024726337
100	0xbe700462	-0.23439172
101	0xbc6c2012	-0.014411943
102	0xbe3d9853	-0.18515138
103	0xbe51f1b6	-0.20502362
104	0xbe4b42fb	-0.1984977
105	0xbccabb9a	-0.024747659
106	0x3d86d1a4	0.065829545
107	0x3f0bdbcd	0.54632264
108	0xbd4ba207	-0.04971507
109	0xbd81652d	-0.06318126
110	0xbe9f82a3	-0.31154355
111	0xbe203c84	-0.15648085
112	0xbe85aff2	-0.26110798
113	0x3e8c4195	0.27393785
114	0xbe64f1a7	-0.22357808
115	0xbe727315	-0.23676713
116	0xbdf96f69	-0.12179453
117	0xbd90d721	-0.070722826
118	0x3dc2f468	0.09519273
119	0x3e4e754a	0.2016193
120	0x3b126eeb	0.0022343944
121	0x3db253fe	0.087074265
122	0xbd735afe	-0.05941295
123	0x3d812376	0.06305592
124	0xbdc80718	-0.09766978
125	0xbccc5503	-0.02494288
126	0xbe1c9ef3	-0.1529501
127	0xbda82815	-0.0821077
128	0xbe5f35b9	-0.21797837
129	0xbe1e5aaf	-0.1546428
130	0x3d72f438	0.059314936
131	0xbe4e64f9	-0.20155706
132	0x3c4b5033	0.012409258
133	0xbe7996fb	-0.24374
134	0x3e621ba0	0.2208085
135	0xbb2119ac	-0.0024581952
136	0xbe1279cd	-0.14304276
137	0x3ccc15b3	0.02491269
138	0x3c130ae7	0.008974767
139	0x3dada944	0.084795505
140	0xbcabd846	-0.02097715
141	0x3e5f2af7	0.21793734
142	0x3d215e07	0.039396312
143	0xbba1f845	-0.004942926
144	0x3d5cd4ea	0.05391399
145	0xbe8f028a	-0.27931625
146	0x3eb4214f	0.35181662
147	0xbe8a340c	-0.26992834
148	0x3e6cc903	0.23123555
149	0xbd9ab224	-0.07553509
150	0x3eb0f4fa	0.34561902
151	0x3ded49e2	0.11586358
152	0x3d38c7d8	0.04511246
153	0xbd2277e5	-0.03966512
154	0x3dd58417	0.10425585
155	0x3ed38e83	0.41319665
156	0x3ea27f45	0.31737724
157	0xbdccff8a	-0.10009678
158	0xbd54037f	-0.051761147
159	0xbdf9c74e	-0.121962175
160	0xbdce6fd9	-0.10079927
161	0x3ed79091	0.42102483
162	0xbe2e7990	-0.1703856
163	0x3e45600e	0.19274923
164	0x3dde4b79	0.10854239
165	0x3e988961	0.29792312
166	0xbed8ebc6	-0.4236738
167	0x3eacac49	0.33725193
168	0x3e93f587	0.2889826
169	0x3d909313	0.07059302
170	0xbdf6b37b	-0.12045952
171	0xbd9491f1	-0.072543986
172	0xbe0f5464	-0.13997036
173	0x3e5006ae	0.20315048
174	0x3cce882d	0.025211418
175	0xbe8ead9a	-0.27866822
176	0x3d48bb2d	0.04900663
177	0xbd8b2327	-0.06793814
178	0x3e61d03d	0.22052093
179	0xbd2a2f5c	-0.04154907
180	0x3e8728b4	0.26398242
181	0xbd9ccb3e	-0.07655953
182	0x3dafd4e5	0.08585528
183	0xbea4d05a	-0.3219021
184	0x3d52cee4	0.051466838
185	0x3dcb6e6a	0.09933169
186	0x3e2c393e	0.16818711
187	0xbe088684	-0.13332564
188	0xbd304803	-0.043037426
189	0xbd3f9cb7	-0.046780314
190	0xbc79a16e	-0.015236242
191	0x3b96eca5	0.004605847
192	0xbdad41e8	-0.08459836
193	0xbe8d8d07	-0.27646658
194	0xbd348120	-0.044068456
195	0xbdafc922	-0.08583285
196	0x3ea4e115	0.32202974
197	0x3e98df13	0.29857692
198	0xbe3fde75	-0.18737204
199	0x3bb8db97	0.0056414115
200	0xbe7379ae	-0.23776886
201	0xbe700448	-0.23439133
202	0xbd0969c6	-0.03354814
203	0xbe01e569	-0.1268517
204	0xbebd0bf7	-0.3692319
205	0xbde5127a	-0.11185165
206	0xbd6dc687	-0.05805066
207	0xbd8aba12	-0.06773771
208	0x3e80839a	0.25100404
209	0x3d91bfb6	0.07116644
210	0x3d050f2a	0.032485165
211	0xbe864e7a	-0.26231748
212	0xbe1227cc	-0.14272994
213	0xbe0eec2e	-0.13957283
214	0xbd95963b	-0.07304045
215	0xbd36b269	-0.04460374
216	0xbdaa86d0	-0.08326495
217	0xbd439011	-0.047744814
218	0xbe4135b5	-0.18868144
219	0xbdbda656	-0.09260242
220	0xbe2df245	-0.1698695
221	0xbc69aa6d	-0.014261824
222	0x3db1ef9c	0.0868828
223	0xbd8224d6	-0.06354682
224	0xbe5aeec3	-0.21380143
225	0xbdd39519	-0.103311725
226	0xbe4659a7	-0.19370137
227	0x3d4fd44c	0.05073957
228	0xbe524b36	-0.20536503
229	0xbdac87ba	-0.08424325
230	0x3dd893c4	0.10575059
231	0xbe5a539f	-0.21320961
232	0x3de61bef	0.11235797
233	0x3d230019	0.039795015
234	0x3dd9230b	0.10602387
235	0x3de80f7f	0.11331081
236	0x3c8ccd15	0.017187634
237	0x3c277df2	0.010222899
238	0xbc2bff6c	-0.010497909
239	0x3eac002d	0.33593884
240	0x3e6a8280	0.22901344
241	0x3dfa670e	0.12226687
242	0x3dadc633	0.08485069
243	0x3b0523ff	0.0020315645
244	0xbe2aa3ab	-0.16663997
245	0x3cd2ed00	0.025747776
246	0x3dadd566	0.08487968
247	0x3bceeb4b	0.00631467
248	0x3e909175	0.28235975
249	0x3d37833e	0.044802897
250	0x3d6ba6df	0.057532188
251	0xbd0cfd5f	-0.03442132
252	0xbe58ba64	-0.21164852
253	0x3ec02854	0.37530768
254	0x3efd05f7	0.49418613
255	0xbced7270	-0.028985232

fc2.bias f4 [10]
0	0xbdbfce97	-0.09365576
1	0x3d59d410	0.053180754
2	0xbc17733e	-0.0092437845
3	0xbd446ec7	-0.047957208
4	0x3afdf2fd	0.0019374784
5	0xbcc95fe5	-0.024581859
6	0xbe0ed438	-0.13948143
7	0x3d6ecbbb	0.05829976
8	0x3d809674	0.06278697
9	0xbe1b4848	-0.15164292
